checkpoint.pth (torch_old, 227284 bytes, 12 tensors)

conv1.weight f4 [6, 1, 3, 3]
0	0xbf735cf6	-0.9506372
1	0x3e741641	0.23836614
2	0x3f2f9ff0	0.6860342
3	0xbd5d93d5	-0.05409606
4	0x3ea1e08f	0.31616637
5	0x3f1bc844	0.60852456
6	0x3eb6d2f6	0.35707825
7	0xbed76fca	-0.42077476
8	0xbed7f8b1	-0.42181924
9	0x3c0eeeb6	0.008723905
10	0xbefa55f7	-0.4889371
11	0xbf0491eb	-0.51785153
12	0xbd853a6b	-0.06505283
13	0xbf1f1336	-0.6213869
14	0xbe662ce0	-0.22478056
15	0xbba6a27c	-0.0050852876
16	0xbe9c5ea7	-0.30540964
17	0x3f1deca5	0.61689216
18	0xbefb9d2f	-0.4914336
19	0x3ca6e148	0.020371094
20	0x3dc1097e	0.094256386
21	0xbf1d2606	-0.61386144
22	0xbe9f7fc1	-0.31152156
23	0x3df55178	0.119784296
24	0x3e564952	0.20926407
25	0xbeb71f2d	-0.35765973
26	0x3e7193d5	0.2359155
27	0x3cf498dc	0.029858045
28	0x3eb45937	0.35224316
29	0x3eeba146	0.4602148
30	0x3ed04fc5	0.4068586
31	0x3e9a4803	0.30133066
32	0xbdbc5dd0	-0.09197581
33	0xbe36dea8	-0.17858374
34	0x3ec0dd98	0.37669063
35	0xbec3726f	-0.38173243
36	0xbc7ba5bd	-0.015359339
37	0x3ea15740	0.3151188
38	0x3e841975	0.25800672
39	0x3d2175bf	0.039418932
40	0x3e081a51	0.13291289
41	0xbdaee307	-0.08539396
42	0x3e0f747b	0.14009278
43	0xbec997f6	-0.3937375
44	0x3df32e3d	0.118740536
45	0xbeced809	-0.40399197
46	0xbe975f9e	-0.29565138
47	0xbf679702	-0.90464795
48	0x3d96363d	0.07334564
49	0x3f06c636	0.52646196
50	0xbe5f79ec	-0.21823853
51	0xbdec6417	-0.11542528
52	0x3f6da7c2	0.92834103
53	0x3f1a8521	0.6035939

conv1.bias f4 [6]
0	0x3e51ad7c	0.20476335
1	0x3e3f9b41	0.18711568
2	0xbe944c57	-0.28964493
3	0xbe2eff62	-0.17089608
4	0xbf9d349e	-1.2281682
5	0x3e1d8fed	0.15386935

conv2.weight f4 [6, 6, 3, 3]
0	0xbed6f47a	-0.41983396
1	0x3c45ee7b	0.012080784
2	0x3eeb4c9b	0.45956883
3	0xbe35ee50	-0.1776669
4	0xbe6ad4f7	-0.22932802
5	0x3e0b0a82	0.13578227
6	0xbeb3281b	-0.34991536
7	0xbe35036e	-0.1767709
8	0x3e8c41e6	0.27394027
9	0xbe0b9a01	-0.13632967
10	0xbdbc6fd5	-0.09201018
11	0xbda9b56d	-0.08286557
12	0x3d1fa3c0	0.038974524
13	0x3e56ce53	0.20977144
14	0x3e69da20	0.22837114
15	0xbe157ff9	-0.14599599
16	0x3eed1a96	0.46309346
17	0x3ed96905	0.42462936
18	0x3e2eb712	0.17062023
19	0x3d8bec2b	0.06832155
20	0xbe2e9d22	-0.17052129
21	0xbce2da4f	-0.027691988
22	0x3e88b420	0.26699924
23	0x3d88c350	0.06677878
24	0xbe83414b	-0.25635752
25	0x3e736abb	0.23771183
26	0x3eab4477	0.33450672
27	0x3f4b8c77	0.7951121
28	0x3d9bd145	0.07608274
29	0x3e345a28	0.17612517
30	0x3e9af1f3	0.30262718
31	0xbeb01385	-0.34389892
32	0xbe8546a5	-0.2603046
33	0x3debc440	0.11512041
34	0xbec1e6a5	-0.3787128
35	0xbea840ac	-0.3286184
36	0x3e386544	0.1800738
37	0xbc8bbe47	-0.017058505
38	0x3e4d9a6d	0.2007844
39	0xbdc1bff5	-0.09460441
40	0xbb800308	-0.0039066114
41	0x3d86d7e0	0.06584144
42	0xbe238e7b	-0.1597232
43	0xbd00af8e	-0.031417422
44	0xbdc3dcc3	-0.09563591
45	0xbc164c18	-0.009173416
46	0xbe3facc2	-0.18718246
47	0x3e29ec36	0.16594014
48	0x3cfca488	0.030840173
49	0xbf012007	-0.50439495
50	0x3e8457c1	0.258482
51	0x3e9147a4	0.2837497
52	0xbf11b3b5	-0.56914836
53	0xbd737c8d	-0.059444953
54	0xbe3c705d	-0.18402238
55	0xbe8d097c	-0.27546299
56	0xbeda4036	-0.42627114
57	0xbe482de7	-0.1954876
58	0xbdbead52	-0.09310402
59	0xbf0b4cfb	-0.5441434
60	0x3e2cc8fa	0.16873541
61	0x3df68b4c	0.120382875
62	0xbe7881ea	-0.24268308
63	0xbdf7f527	-0.12107306
64	0x3ea08350	0.31350183
65	0x3f0bb39c	0.5457094
66	0xbe7c8940	-0.24661732
67	0xbe46605b	-0.19372694
68	0x3e559d23	0.20860724
69	0xbe3eb415	-0.18623383
70	0xbecd4890	-0.40094423
71	0xbe54dfac	-0.20788449
72	0xbe47c3ca	-0.19508281
73	0xbe3fb884	-0.18722731
74	0x3e35237d	0.17689319
75	0xbe2a91b3	-0.16657142
76	0xbe472583	-0.19447903
77	0xbe725e78	-0.2366885
78	0xbe26b2d0	-0.16279149
79	0xbce6e421	-0.028184952
80	0xbdf9f20c	-0.1220437
81	0xbedff12c	-0.43738687
82	0xbf12462f	-0.5713834
83	0xbf4e9e6a	-0.8071047
84	0x3eb17473	0.34659156
85	0xbdfd3dac	-0.123652786
86	0xbeb32cd2	-0.34995133
87	0x3f0ae1d2	0.54250824
88	0x3f1b5ab4	0.60685277
89	0x3f0a3cc7	0.5399899
90	0xbe387f1c	-0.18017238
91	0xbe5844ad	-0.21119948
92	0xbdd7564b	-0.10514506
93	0x3e633e86	0.2219182
94	0xbd9e7a93	-0.07738223
95	0xbe1223fa	-0.14271536
96	0x3e8ffcf7	0.28122684
97	0x3e841fc8	0.25805497
98	0x3e3cf342	0.1845217
99	0x3e908d4e	0.28232807
100	0x3ef1d4d8	0.472327
101	0xbe9ca28c	-0.30592763
102	0xbeac63bd	-0.33669844
103	0x3ed7a48c	0.42117727
104	0x3ec57e4c	0.3857292
105	0xbee33fc2	-0.4438458
106	0x3e7b32e7	0.24531136
107	0x3efca474	0.49344218
108	0x3e6b801d	0.2299809
109	0x3e7af8d1	0.24508978
110	0xbd1b50b7	-0.037918773
111	0x3ecc4e65	0.3990356
112	0x3e4b4a5d	0.19852586
113	0xbdbde7c2	-0.0927272
114	0x3cbbd4c0	0.022928596
115	0xbd282d53	-0.04105885
116	0x3e166f8a	0.14690986
117	0x3ec6af7f	0.38805768
118	0xbe614cc3	-0.22001939
119	0xbeb9226c	-0.36159074
120	0x3e83aa8d	0.25716057
121	0xbdde1f7e	-0.108458504
122	0xbe8b2384	-0.27175534
123	0x3dfcf9c8	0.123523295
124	0xbda6f92b	-0.08152994
125	0xbecbc348	-0.39797425
126	0x3de738fa	0.11290164
127	0x3e08d7f6	0.13363633
128	0xbd97c43c	-0.074104756
129	0x3d53e680	0.051733494
130	0x3e41949e	0.18904349
131	0xbd7834ca	-0.06059722
132	0xbdb03d01	-0.086053856
133	0x3d5bead5	0.05369075
134	0xbe419028	-0.18902647
135	0xbf23349e	-0.6375216
136	0xbd532b74	-0.051555112
137	0x3e915b1f	0.28389832
138	0xbecd91f8	-0.40150428
139	0xbe0e1626	-0.13875636
140	0x3e5e4e88	0.21709645
141	0xbeca7382	-0.3954125
142	0xbd8cbb30	-0.06871641
143	0x3e2d8a22	0.16947225
144	0xbe3809ae	-0.17972443
145	0xbca0241f	-0.019548474
146	0x3d32bc1c	0.043636426
147	0x3d819a0e	0.06328212
148	0x3d357c25	0.044307847
149	0x3d448fcf	0.04798871
150	0xbde03400	-0.10947418
151	0xbd98cf45	-0.074614085
152	0xbe11e57e	-0.142477
153	0xbd33669c	-0.043799028
154	0x3df20700	0.118177414
155	0x3dba73a2	0.091040865
156	0xbdd20393	-0.10254588
157	0xbcf8b4b5	-0.030359605
158	0x3d974527	0.07386237
159	0xbe74fec8	-0.23925316
160	0xbeaee782	-0.34161
161	0x3d72c12b	0.05926625
162	0xbd98427e	-0.074345574
163	0xbcfa3be5	-0.030546138
164	0xbc4a8d68	-0.012362815
165	0x3d0daf51	0.034591023
166	0xbea0198d	-0.31269494
167	0xbddc42da	-0.107549384
168	0x3edf0e21	0.43565467
169	0x3e4937cb	0.1965019
170	0xbd60985b	-0.054832797
171	0xbe611e4a	-0.2198421
172	0xbe8f8cdc	-0.28037155
173	0xbe1fd7ba	-0.15609637
174	0xbd284d4f	-0.041089352
175	0xbe1b6daf	-0.1517856
176	0xbdaef827	-0.08543425
177	0xbd7ac0c0	-0.061218977
178	0xbbbf9f7c	-0.0058478694
179	0xbd8662dd	-0.065618254
180	0x3ddad03c	0.10684249
181	0xbda9409f	-0.082642786
182	0xbd9ba2b2	-0.07599391
183	0x3e987c19	0.2978218
184	0xbe0bac64	-0.1363998
185	0xbe5de3f1	-0.21668984
186	0xbd80cdf5	-0.06289283
187	0xbdeb806c	-0.11499104
188	0x3d078c66	0.03309288
189	0x3e3dbb9f	0.18528603
190	0xbd82745c	-0.0636985
191	0x3d17f8ba	0.03710244
192	0x3e8db888	0.2767985
193	0x3e57913c	0.21051496
194	0x3e869880	0.26288223
195	0x3e8737e0	0.26409817
196	0xbdbce73b	-0.09223791
197	0x3ebaefa3	0.36510953
198	0xbd2f8fa2	-0.04286159
199	0x3d952167	0.072817616
200	0xbdac352c	-0.08408579
201	0x3dc0cd1d	0.09414122
202	0x3d630439	0.05542395
203	0x3e6e71d0	0.23285604
204	0x3d3dbdcf	0.046323594
205	0x3c5154f6	0.012776604
206	0x3e20a47e	0.15687749
207	0x3e1c69bc	0.1527471
208	0xbe741494	-0.23835975
209	0x3e1f3f9d	0.1555161
210	0x3ca5afe2	0.020225469
211	0xbe440a64	-0.19144589
212	0x3dce2d9d	0.10067294
213	0xbe1e0045	-0.1542979
214	0xbe4252ab	-0.18976848
215	0xbe477038	-0.19476402
216	0x3ebe4d7c	0.3716849
217	0xbf034bd6	-0.5128759
218	0xbeed0c4b	-0.4629844
219	0x3df54752	0.11976494
220	0xbe3316aa	-0.17489114
221	0xbeac8e98	-0.3370254
222	0x3dc1b166	0.09457664
223	0xbc4f9a10	-0.012671009
224	0xbe0aa22d	-0.13538428
225	0xbeeef475	-0.4667088
226	0xbe070f74	-0.13189489
227	0x3e4c604f	0.19958614
228	0xbebad338	-0.36489272
229	0xbd81c788	-0.06336886
230	0x3eb5a3d7	0.35476562
231	0xbf035d10	-0.5131388
232	0xbe5c75ae	-0.21529266
233	0x3f439efa	0.76414454
234	0xbe850743	-0.25982103
235	0xbe3721f6	-0.17884049
236	0xbc9f50a8	-0.01944764
237	0xbe8af44c	-0.2713951
238	0x3d245807	0.040123012
239	0x3c5108e3	0.012758466
240	0xbe3c8104	-0.1840859
241	0xbe1fa341	-0.1558962
242	0xbd0ac1dd	-0.03387629
243	0x3f4962a9	0.7866617
244	0x3e0a6a96	0.13517222
245	0xbf284223	-0.65725917
246	0x3f24dfa1	0.6440373
247	0x3db481b8	0.088138044
248	0xbf49b62c	-0.787936
249	0x3f2f66a8	0.68516016
250	0x3d824712	0.06361212
251	0xbf2bbb99	-0.67083126
252	0x3ed20d58	0.41025805
253	0xbe1be809	-0.15225233
254	0xbeca5682	-0.39519125
255	0x3e39c3bd	0.18141074

conv2.bias f4 [6]
0	0x3b7b9b8e	0.0038392278
1	0x3e8dab86	0.27669924
2	0xbd5ea62d	-0.054357696
3	0x3e4cb412	0.19990566
4	0x3ce31929	0.027721958
5	0x3e10fd49	0.1415912

conv3.weight f4 [16, 6, 3, 3]
0	0xbba98de5	-0.005174386
1	0xbdc7d37c	-0.09757134
2	0x3d23acb5	0.039959628
3	0xbd8f0b30	-0.06984556
4	0xbd5ac7d3	-0.053413223
5	0x3d845e6a	0.064633206
6	0xbcae092f	-0.021244613
7	0xbe11ec80	-0.14250374
8	0x3dde4993	0.10853877
9	0x3d9d5413	0.076820515
10	0x3d7c0c8e	0.06153541
11	0x3db140bc	0.08654925
12	0xbdccc138	-0.09997791
13	0xbddff64b	-0.109356485
14	0x3dd405c0	0.10352659
15	0xbc7011a4	-0.014652643
16	0xbd8a00ad	-0.0673841
17	0x3d7d5504	0.061848655
18	0x3d9d4f9f	0.07681202
19	0xbd43a93c	-0.047768816
20	0xbb1d9d79	-0.002405016
21	0xbdf0ea6c	-0.117634624
22	0xbd4a76ff	-0.04942989
23	0xbdf80ee1	-0.12112213
24	0x3c965d40	0.018355012
25	0xbd7b2c96	-0.061321817
26	0x3d300a91	0.042978827
27	0xbc5a8c02	-0.0133390445
28	0xbe49990f	-0.19687293
29	0x3c443da1	0.011977584
30	0x3d3117a4	0.043235436
31	0x3d91dbb9	0.07121987
32	0xbd8ff090	-0.070283055
33	0x3d589eba	0.05288575
34	0xbd4e0b79	-0.05030391
35	0xbe02c100	-0.12768936
36	0xbe1c899c	-0.15286869
37	0xbde3f00f	-0.11129772
38	0xbc933ffc	-0.017974846
39	0xbd09e057	-0.033661213
40	0xbe0f3a53	-0.13987093
41	0xbde8080b	-0.11329659
42	0xbd2a31fc	-0.041551575
43	0xbd2608dc	-0.040535793
44	0xbd383051	-0.044967953
45	0xbd9ffc1c	-0.07811758
46	0xbd825194	-0.06363216
47	0xbd74f7de	-0.059806697
48	0x3d870cff	0.06594276
49	0x3de649d0	0.11244547
50	0xbcc1e074	-0.023666598
51	0xbd5a9d3f	-0.053372618
52	0x3d4ffe57	0.050779667
53	0xbe054134	-0.13013154
54	0x3d5da32c	0.05411069
55	0xbe3a336d	-0.1818368
56	0xbc1a13f6	-0.009404173
57	0xbe339bdc	-0.17539924
58	0xbe4e8dc2	-0.20171264
59	0xbe141d00	-0.14464188
60	0xbd8896e8	-0.06669408
61	0xbe18e371	-0.14930512
62	0x3d5befa3	0.053695332
63	0x3da6251a	0.08112545
64	0x3c0ffee6	0.0087888
65	0x3ca9f923	0.02074868
66	0xbd03909d	-0.032120336
67	0xbdbc3498	-0.09189719
68	0x3da1ed9f	0.07906651
69	0xbdb6a076	-0.08917324
70	0xbd289c83	-0.041164886
71	0xbdfa1947	-0.122118525
72	0xbd7634a4	-0.060108796
73	0x3cf79ee8	0.03022714
74	0x3db9ec21	0.09078241
75	0xbcaed36f	-0.021341054
76	0xbce1a5c7	-0.02754487
77	0xbc2459a1	-0.010031135
78	0x3de15112	0.11001791
79	0xbe12f369	-0.14350666
80	0x3c8551aa	0.016274292
81	0xbddb1bb9	-0.10698647
82	0x3df41d83	0.119196914
83	0xbb3c7da8	-0.002876142
84	0xbd1ade31	-0.037809554
85	0xbd43fecd	-0.04785042
86	0xbe2af922	-0.16696599
87	0xbe0cc196	-0.13745722
88	0xbdffd768	-0.12492257
89	0xbe599c23	-0.21250968
90	0xbc9f7c8d	-0.01946857
91	0x3bb6b725	0.0055760317
92	0xbd9139d8	-0.07091111
93	0xbe11fe78	-0.14257228
94	0xbde39e08	-0.111141264
95	0xbd809483	-0.06278326
96	0xbdd60cfb	-0.104516946
97	0x3b149c33	0.002267611
98	0x3d9df861	0.0771339
99	0xb98a5d82	-0.0002639108
100	0xbcf79660	-0.030223072
101	0xbcb0f87a	-0.021602858
102	0xbd88fecb	-0.06689223
103	0xbd9148de	-0.070939764
104	0xbe114f6b	-0.14190452
105	0x3c7a4651	0.015275554
106	0xbdd7eee4	-0.10543612
107	0xbdb553eb	-0.08853897
108	0x3ba3228c	0.0049784835
109	0xbdaed31d	-0.085363604
110	0x3d572a1a	0.052530386
111	0xbddbce1b	-0.10732671
112	0x3da7bf25	0.08190755
113	0xbe29a083	-0.16565137
114	0x3d1f34b7	0.038868632
115	0xbd95255e	-0.07282518
116	0xbe1871f0	-0.14887214
117	0xbdf8efec	-0.121551365
118	0x3d4220d0	0.047394574
119	0x3d6dd85e	0.058067672
120	0xbd991cc5	-0.074761905
121	0x3d48e2d2	0.049044438
122	0xbdf7adfa	-0.1209373
123	0xbe035507	-0.12825404
124	0x3dd17cc2	0.10228874
125	0xbd087b4d	-0.033320714
126	0xbe063999	-0.1310791
127	0xbdaf368f	-0.08555328
128	0xbd499b20	-0.049220204
129	0xbdf6e869	-0.120560475
130	0xbdac12d8	-0.08402032
131	0x3dd91d66	0.106013104
132	0x3c0fd6c8	0.008779235
133	0xbd1bd30f	-0.038043078
134	0x3d72fadf	0.05932128
135	0xbeb7c97a	-0.35895902
136	0x3c6d919e	0.01450005
137	0x3cf052c3	0.029336339
138	0xbe4cb111	-0.1998942
139	0x3b407d61	0.0029371607
140	0xbd2d83e9	-0.042362127
141	0xbdcc15ed	-0.099651195
142	0x3cc74f06	0.024329673
143	0xbde60a4e	-0.11232434
144	0xbd3932df	-0.04521453
145	0xbd47a84f	-0.048744496
146	0x3dadbe89	0.08483607
147	0xbd082bca	-0.033244886
148	0x3d9dd523	0.07706668
149	0x3d0d6d1a	0.034527875
150	0xbe2f10ab	-0.17096202
151	0xbdeb35c3	-0.114848636
152	0x3d1b93b4	0.037982658
153	0xbcb242e7	-0.021760417
154	0xbdfb1f43	-0.12261822
155	0x3c559d9c	0.013038065
156	0x3e128955	0.143102
157	0x3d26474e	0.040595345
158	0xbd5e3cd2	-0.05425722
159	0x3cbd0083	0.023071533
160	0xbdce3dc5	-0.10070375
161	0xbca070c6	-0.019585025
162	0xbebf8426	-0.3740551
163	0x3f358e57	0.7092032
164	0xbda66965	-0.08125571
165	0xbede47e0	-0.4341421
166	0x3eb63608	0.35588098
167	0xbcd578ba	-0.026058543
168	0xbf044255	-0.51663715
169	0xbe91f31c	-0.2850579
170	0xbdcdbba1	-0.10045553
171	0x3f121245	0.5705913
172	0xbe7214a6	-0.23640689
173	0xbf25f6df	-0.6482982
174	0x3f0eac5b	0.55731744
175	0xbc3cd72c	-0.01152591
176	0xbf3520c6	-0.70753133
177	0xbd37f775	-0.044913728
178	0x3e6c9402	0.23103335
179	0xbf1adaec	-0.604903
180	0xbf0242c8	-0.5088315
181	0x3e250290	0.16114259
182	0x3f004af6	0.5011438
183	0xbf059682	-0.5218278
184	0x3ed11348	0.40835023
185	0x3eadf74b	0.33977732
186	0xbe521bae	-0.20518371
187	0xbe95ea37	-0.29280254
188	0x3ea63e9d	0.32469645
189	0xbef337e0	-0.47503567
190	0xbf3e92a6	-0.7444252
191	0x3d0df230	0.034654796
192	0x3f16cb66	0.5890411
193	0xbee87289	-0.45399883
194	0x3e911412	0.28335625
195	0x3f166080	0.58741
196	0xbc9b9f69	-0.018996911
197	0x3e00763b	0.12545101
198	0x3e82408a	0.25439864
199	0x3f0cb201	0.5495911
200	0xbf0627f4	-0.52404714
201	0x3df825d0	0.12116587
202	0x3e179a28	0.148049
203	0xbeaae435	-0.33377233
204	0xbec6b05a	-0.3880642
205	0xbe22f252	-0.1591275
206	0xbf1ba92b	-0.60805005
207	0xbf1a156d	-0.60188943
208	0x3eb71339	0.35756853
209	0xbe8008f8	-0.25006843
210	0xbf1f5e13	-0.6225292
211	0xbe1835ec	-0.1486432
212	0x3d6d1018	0.057876676
213	0xbeac81cc	-0.33692777
214	0xbe037ef9	-0.12841405
215	0x3c9cea89	0.019154804
216	0xbdcdaa21	-0.10042215
217	0x3cb371fe	0.021904942
218	0xbd44ea0e	-0.048074774
219	0x3d376e1d	0.044782747
220	0xbdfd4809	-0.12367255
221	0xbe082b52	-0.13297775
222	0x3cb19d19	0.021681355
223	0xbc7f1abb	-0.015570338
224	0x3d4c5b2c	0.049891636
225	0xbc911843	-0.017711764
226	0xbc658e5f	-0.014010995
227	0xbc510c0e	-0.012759222
228	0xbd89aa84	-0.067219764
229	0x3d80f5c0	0.06296873
230	0x3dbf3c4b	0.09337672
231	0x3d48ea44	0.049051538
232	0xbd05832d	-0.032595802
233	0x3db7549b	0.08951684
234	0x3d3de385	0.046359558
235	0x3dd1efa4	0.10250786
236	0xbd5a603e	-0.05331444
237	0xbcf6838d	-0.030092025
238	0x3cf10914	0.029423274
239	0xbdbfe857	-0.09370487
240	0xbd998254	-0.07495561
241	0x3d316c7d	0.043316353
242	0x3c579e30	0.013160273
243	0xbdd5fac9	-0.10448224
244	0x3d8aa1f3	0.067691706
245	0xbd0ffaf9	-0.035151456
246	0x3d0506bc	0.032477126
247	0x3dcce471	0.10004509
248	0x3da7cfe8	0.08193952
249	0xbe03a8e2	-0.12857392
250	0xbdbe63ff	-0.092964165
251	0xbde3bd13	-0.111200474
252	0xbcd41f8b	-0.025893947
253	0xbdc8ff8f	-0.09814369
254	0xbdf6aa09	-0.120441504
255	0x3d38a048	0.04507473

conv3.bias f4 [16]
0	0xbd95548c	-0.07291517
1	0x3c65a005	0.014015202
2	0x3bc604fb	0.006043074
3	0xbea62bb5	-0.3245522
4	0xbd8c7226	-0.068577096
5	0xbe626c23	-0.22111563
6	0x3da87cdb	0.08226939
7	0x3e4ee0ac	0.20202893
8	0xbed3bf60	-0.41356945
9	0xbec16861	-0.37774947
10	0xbe9ad937	-0.30243847
11	0xbf1a6861	-0.6031552
12	0xbe8d6867	-0.27618715
13	0xbe703bd0	-0.23460317
14	0xbdffd8ae	-0.124925
15	0xbe6bd06f	-0.2302873

fc1.weight f4 [120, 400]
0	0xbb88b748	-0.0041722395
1	0x3c1fd5b2	0.009755539
2	0xbd1e4162	-0.038636573
3	0xbc240746	-0.0100115
4	0xbd2061d5	-0.0391558
5	0xbbad8988	-0.005295936
6	0x3bf92bed	0.0076041133
7	0xbd340122	-0.043946393
8	0x3d273346	0.040820383
9	0x3be53cb5	0.006995762
10	0xbd1e44ea	-0.03863994
11	0x3c1de9c2	0.009638252
12	0x3c164c9f	0.009173541
13	0xbc959010	-0.01825717
14	0xbc81df36	-0.015853506
15	0x3cdde3ba	0.027086128
16	0xbcc1bd31	-0.023649784
17	0xbd46329c	-0.04838811
18	0xbd275c0b	-0.040859263
19	0xbb90f70b	-0.004423981
20	0xbd218b59	-0.039439533
21	0x3cd93e52	0.026518974
22	0xbd127164	-0.03575267
23	0x3d44e204	0.048067108
24	0xbd2f54d9	-0.042805526
25	0xbbd6b36e	-0.0065521514
26	0x3c95c449	0.018282073
27	0x3d2efca2	0.0427214
28	0xb9c20c25	-0.00037011612
29	0x3d4a5eaa	0.049406685
30	0x3d0a166f	0.0337128
31	0x3d16ebc2	0.03684593
32	0x3b4dad2d	0.0031383738
33	0xbd091344	-0.03346564
34	0x3cf1c499	0.02951269
35	0xbcdbd09e	-0.026832875
36	0x3ca0f3e5	0.019647548
37	0xbcb3f800	-0.021968842
38	0x3d52e3e4	0.051486865
39	0x3c9cd720	0.019145548
40	0xbc7c5fc7	-0.0154036945
41	0x3c97f495	0.018549243
42	0xbd3bcfb1	-0.045852367
43	0xbce3728e	-0.027764585
44	0xbcacb424	-0.021081991
45	0xb96559cb	-0.00021872592
46	0xbbb8a46f	-0.0056348364
47	0x3c07c9f7	0.008287898
48	0x3d35e0f5	0.04440399
49	0x3d0c1a59	0.034204815
50	0xbb93edc8	-0.0045144297
51	0x3d16bfc9	0.036803994
52	0xbcb75f7d	-0.0223844
53	0x3cc230e8	0.023704961
54	0x3d4d96af	0.05019253
55	0x3d4c0098	0.049805254
56	0x3d44abcc	0.0480154
57	0xbd05bab2	-0.03264875
58	0x3be7c7e4	0.0070733894
59	0xbd1891f3	-0.037248563
60	0x3c59e3d9	0.013298952
61	0xbcfcb66e	-0.030848708
62	0xbd3368eb	-0.04380123
63	0x3b20d135	0.002453876
64	0xbd428f15	-0.047499735
65	0xbc0664c4	-0.008202735
66	0xbcb3f0ef	-0.021965472
67	0x3b840bb7	0.004029717
68	0xbd3b3b20	-0.045710683
69	0xbd1feb03	-0.039042484
70	0xbd1f3d4f	-0.038876828
71	0xbd1c7424	-0.038196698
72	0xbc6e8c92	-0.014559882
73	0xbd36c9fb	-0.044626217
74	0xbbbf5b03	-0.005839707
75	0xbd5d0da9	-0.053968105
76	0xbde19b95	-0.11016003
77	0xbb904462	-0.004402683
78	0xbe34d7a7	-0.1766039
79	0xbcfc90ab	-0.030830702
80	0xbddf1462	-0.108925596
81	0xbe600116	-0.21875414
82	0x3de187d4	0.11012235
83	0xbdbe9268	-0.093052685
84	0xbd54b939	-0.051934455
85	0xbdc38de2	-0.095485464
86	0xbe4f0163	-0.20215373
87	0x3d2866c1	0.04111362
88	0x3d6001e5	0.054689307
89	0x3d9f22cd	0.077703096
90	0xbd555abd	-0.052088488
91	0xbdab516c	-0.08365139
92	0x3e427465	0.18989713
93	0x3e11247e	0.14174077
94	0x3d8c4221	0.068485506
95	0xbdb82acf	-0.0899254
96	0xbda96016	-0.0827028
97	0x3cf33b89	0.029691475
98	0x3d41417b	0.047181588
99	0x3e0e2881	0.13882639
100	0x3b2cfc24	0.0026395405
101	0x3cfbcc0a	0.030736942
102	0xbcc1e876	-0.023670416
103	0x3ca0dfe9	0.019638019
104	0xba20d3a0	-0.000613505
105	0x3bca2595	0.006169031
106	0x3cfbd39b	0.03074055
107	0x3ba830ec	0.005132785
108	0x3d26e370	0.040744245
109	0xbbc5e361	-0.0060390686
110	0xbd00699e	-0.031350724
111	0x3b6d268b	0.0036186303
112	0xbce98e8a	-0.02851035
113	0x3bfc5a24	0.0077011753
114	0x3c7bb16c	0.015362125
115	0x3d2b18ce	0.041771702
116	0xbd0a30c6	-0.03373792
117	0xbcd3367e	-0.02578282
118	0x3bc34b0e	0.005959875
119	0x3d2ee45a	0.04269824
120	0x3ca67c85	0.020323047
121	0x3d33647a	0.043796994
122	0x3d027dfb	0.031858426
123	0x3c9814cc	0.018564604
124	0xbc222c8b	-0.009898315
125	0xbd8e42e3	-0.069463514
126	0xbcf32fb5	-0.029685834
127	0xbcc132f6	-0.02358387
128	0xbde0f9e4	-0.10985163
129	0xbde349eb	-0.11098083
130	0xbd6f5a1e	-0.05843555
131	0x3d0d3d95	0.034482557
132	0xbce0eb3b	-0.027455917
133	0xbd6854d7	-0.056721535
134	0xbdc2ac95	-0.09505574
135	0x3d1a61de	0.03769099
136	0xbd4f4edd	-0.05061232
137	0xbdd6b86d	-0.10484395
138	0xbdacd941	-0.084398754
139	0xbd6767ab	-0.05649535
140	0xbd8815d7	-0.066447906
141	0x3d6dab77	0.05802485
142	0xbd484f59	-0.048903797
143	0xbd6cb0e5	-0.057785887
144	0xbbcbea21	-0.0062229787
145	0x3cc51d5c	0.024061851
146	0x3dba2b47	0.09090286
147	0x3da0e98b	0.07857045
148	0x3d4302ff	0.04761028
149	0x3cea9181	0.028633835
150	0x3d3e13a4	0.04640545
151	0xba9e7aae	-0.0012091005
152	0xbcc8551b	-0.024454644
153	0x3c201040	0.009769499
154	0xbccf23a2	-0.025285546
155	0xbce02ca9	-0.027365046
156	0xbc7c11f9	-0.015385144
157	0x3c15eb90	0.009150401
158	0x3c95acf0	0.01827094
159	0x3d368d02	0.04456807
160	0xbc5bd185	-0.013416653
161	0xbcb605e0	-0.022219598
162	0xbd11c725	-0.03559031
163	0x3cb2027d	0.021729702
164	0x3cfb75df	0.030695854
165	0xbc80a5d4	-0.015704073
166	0x3d0a9347	0.03383186
167	0x3d11c32e	0.03558653
168	0x3d3fc882	0.04682208
169	0xbce266df	-0.027636943
170	0xbcc8d05d	-0.024513418
171	0xbc001bdd	-0.007819143
172	0x3cbbfbb1	0.022947164
173	0xbc8ca2f4	-0.017167546
174	0xbd552c00	-0.052043915
175	0xbd97b6cc	-0.074079126
176	0xbd0903a8	-0.033450752
177	0x3c0a8da7	0.008456624
178	0x3c311aab	0.010809581
179	0xbc8c40be	-0.017120715
180	0xbd3f21c6	-0.04666307
181	0xbdf4528b	-0.11929806
182	0xbcdf0e98	-0.027228639
183	0xbd065009	-0.03279117
184	0xbcd88eb3	-0.026435232
185	0xbc9e4a29	-0.019322472
186	0xbd566415	-0.05234154
187	0xbe286322	-0.16444066
188	0xbdeeec59	-0.116661735
189	0x3dc3da08	0.095630705
190	0xbdc8ec28	-0.09810668
191	0xbdba2aeb	-0.09090217
192	0xbd89fccf	-0.067376725
193	0xbe053b60	-0.13010931
194	0x3d980697	0.07423132
195	0xbe0218b1	-0.12704732
196	0xbbe4e751	-0.006985583
197	0xbd011e00	-0.03152275
198	0xbd9358da	-0.071946815
199	0xbd970bac	-0.07375273
200	0xbdc2ff3a	-0.09521337
201	0x3c0f7a2d	0.008757156
202	0x3d03e907	0.032204654
203	0xbc50da15	-0.012747307
204	0xb7ad62f6	-2.066929e-05
205	0xbd6fc27e	-0.05853509
206	0xbc1fe8b2	-0.009760069
207	0xbc78198b	-0.015142809
208	0x3dc98ad0	0.098409295
209	0x3da09119	0.07840175
210	0xbc0f3c5d	-0.008742419
211	0x3a7db195	0.0009677646
212	0xbdf2e1c6	-0.11859469
213	0xbd9b2208	-0.0757485
214	0x3d8fbc88	0.07018381
215	0xbda57bbe	-0.080802426
216	0xbd098c9d	-0.033581365
217	0xbdcb5fe4	-0.09930399
218	0xbc4a1a6c	-0.012335401
219	0xbd20b31f	-0.039233323
220	0xbd0c70ec	-0.03428738
221	0xbc600131	-0.013672159
222	0xbb100bc6	-0.0021979674
223	0x3bc4a4ac	0.0060010757
224	0xbbc0a3d0	-0.005878903
225	0xbcb82d8e	-0.02248266
226	0xbc92a712	-0.017901931
227	0xbda656d8	-0.08122033
228	0xbd9ea5fa	-0.07746501
229	0xbdf63c04	-0.12023166
230	0xbd8d260f	-0.06892025
231	0xba0937b9	-0.00052344386
232	0xbd027378	-0.0318484
233	0xbd5914c5	-0.052998323
234	0xbbf77f55	-0.007553021
235	0x3d01910c	0.031632468
236	0x3cfa3a30	0.030545324
237	0xbd8a327c	-0.067479104
238	0xbddb77d7	-0.10716217
239	0x3d3eba39	0.046564315
240	0xbc2a384d	-0.0103894
241	0x3d01d6a1	0.031698827
242	0xbd874673	-0.06605234
243	0xbcd6e0de	-0.026230272
244	0x3bf41c4f	0.0074496637
245	0x3d960c49	0.07326562
246	0x3e0d7d1d	0.13817258
247	0x3dc70279	0.097172685
248	0x3dc66617	0.09687441
249	0xbdc00464	-0.093758374
250	0xbd8fb0eb	-0.07016166
251	0x3d367e03	0.044553768
252	0x3b82f578	0.0039965473
253	0xbb5e565c	-0.0033925986
254	0x3cc45a3e	0.023968812
255	0xbe38811f	-0.18018006

fc1.bias f4 [120]
0	0xbccaf2d9	-0.024774002
1	0xbc826123	-0.015915459
2	0x3ba815f3	0.0051295697
3	0x3d684e64	0.056715384
4	0xbd8b79b5	-0.06810323
5	0xbe272f84	-0.1632672
6	0xbe1dcec2	-0.15410903
7	0xbcaef9bf	-0.021359323
8	0x3de6fe72	0.11279
9	0xbdb5fecb	-0.088864885
10	0x3d800cd1	0.062524445
11	0x3d1c38b6	0.03814002
12	0xbd060ee2	-0.032729037
13	0xbc778c21	-0.015109093
14	0x3dc2fedd	0.095212676
15	0x3d94be80	0.072628975
16	0x3d638860	0.05554998
17	0x3cc9baf6	0.024625283
18	0xba229795	-0.0006202397
19	0x3c99001e	0.018676814
20	0x3c719b49	0.0147464955
21	0x3ddf46f7	0.10902207
22	0xbd914def	-0.07094943
23	0xbdf81d15	-0.12114922
24	0xbd4ed0ed	-0.050492216
25	0xbd715a5c	-0.058924064
26	0xbbbb5d10	-0.005717881
27	0x3c8ab75b	0.016933134
28	0x3a7385ca	0.00092896505
29	0xbbabef80	-0.0052470565
30	0xbca652e8	-0.020303205
31	0xbd873902	-0.0660267
32	0x3e7497c5	0.2388602
33	0x3d2b86d3	0.041876625
34	0xbd2ac1a7	-0.041688588
35	0x3db0be9d	0.086301066
36	0xbdd5aca6	-0.10433321
37	0xbb563f99	-0.0032691716
38	0xbdaab1be	-0.08334683
39	0xbc9c0a5a	-0.019047905
40	0x3d303632	0.043020435
41	0xbd5559d0	-0.052087605
42	0x3ce49e5e	0.027907547
43	0xbdb96cfd	-0.09053991
44	0xb995049b	-0.00028422926
45	0x3d4e2f7d	0.050338257
46	0xbd739734	-0.05947037
47	0x3e2ab0d1	0.16669013
48	0x3d05501e	0.03254711
49	0x3c4d4c1f	0.012530356
50	0xbc1c07dd	-0.009523359
51	0xbc9dae60	-0.019248188
52	0xbdaf1982	-0.08549787
53	0xbb083914	-0.0020785974
54	0xbc019566	-0.0079091545
55	0x3c6456c9	0.013936707
56	0x3bb88dc3	0.0056321337
57	0x3ce7434e	0.028230336
58	0x3d34146a	0.04396478
59	0x3deed797	0.11662214
60	0xbd45c35d	-0.048282016
61	0xbd40a718	-0.047034353
62	0x3bae899a	0.005326462
63	0xbd65c155	-0.05609258
64	0x3dff0e6d	0.124539234
65	0xbd224e4e	-0.03962546
66	0x3c539081	0.01291287
67	0x3d327e83	0.043577682
68	0xbaaf7100	-0.0013385117
69	0xbd6a5c1d	-0.057216752
70	0xbbd07b9c	-0.0063623916
71	0x3e08c99b	0.13358156
72	0x3d03752d	0.03209417
73	0xbd2b3994	-0.041802958
74	0x3cbc62d0	0.022996336
75	0x3db86af3	0.09004774
76	0xbd86b7d0	-0.06578028
77	0xbd4ac709	-0.04950622
78	0xbd73868b	-0.059454482
79	0xbbd416e8	-0.006472457
80	0x3d1fb796	0.03899344
81	0x3d3d0e84	0.04615642
82	0x3c0161b4	0.007896829
83	0x3dd9e2b2	0.10638942
84	0x3c829084	0.015938051
85	0x3dab2847	0.08357292
86	0x3cf747d8	0.030185625
87	0x3dbbd28b	0.09171017
88	0xbd97f4f4	-0.07419768
89	0x3dc34648	0.095348895
90	0x3d0480f5	0.032349546
91	0xbca6ff0d	-0.02038529
92	0x3d8a6489	0.06757457
93	0x3c236924	0.009973798
94	0x3d8f87d8	0.07008332
95	0x3ce4906d	0.027900899
96	0x3d4270e9	0.04747096
97	0xba28bdcc	-0.00064369733
98	0xbd292c97	-0.04130229
99	0x3d4f0548	0.050542146
100	0x3dc0a358	0.09406155
101	0x3c7631e5	0.015026544
102	0x3c6c75ec	0.014432412
103	0x3c890a31	0.016728492
104	0xbda1fbb7	-0.07909339
105	0xbdf26d12	-0.1183721
106	0xbd97db58	-0.074148834
107	0xbdb1a23e	-0.08673523
108	0x3c831e24	0.016005583
109	0xbcbaffa2	-0.022826973
110	0xbd28fb71	-0.04125542
111	0x3c5bb0d9	0.013408863
112	0xbce42c82	-0.027853254
113	0x3c89b50f	0.016809968
114	0x3e1a4070	0.15063643
115	0xbda76843	-0.08174183
116	0x3d297438	0.0413706
117	0x3cf68950	0.030094773
118	0xbb8c705b	-0.0042858548
119	0x3a9f6069	0.001215947

fc2.weight f4 [48, 120]
0	0x3d0415c8	0.032247335
1	0x3d914f42	0.07095195
2	0x3d275051	0.04084808
3	0xbdc7248e	-0.09723769
4	0x3cc309d8	0.023808405
5	0xbd4acfcd	-0.04951458
6	0x3dab4e7b	0.08364578
7	0xbc245289	-0.010029444
8	0xbdffc8d4	-0.12489477
9	0xbc88d40a	-0.01670267
10	0xbd7bfc9c	-0.061520204
11	0x3d8f38a5	0.06993226
12	0x3c2584ca	0.01010246
13	0x3e689fcb	0.22717206
14	0x3c5ea0d4	0.013588149
15	0x3dc73e77	0.09728711
16	0xbd29979b	-0.041404348
17	0x3cec9f2f	0.028884498
18	0xbb795aa3	-0.0038048408
19	0xbc576e87	-0.01314891
20	0xbdaac9ae	-0.083392486
21	0xbdaeaef0	-0.085294604
22	0xbdd514cb	-0.104043566
23	0x3b4c706b	0.0031194936
24	0x3d8e3e2f	0.06945454
25	0xbdf18276	-0.117924616
26	0xbe15fded	-0.14647646
27	0x3db8f4b1	0.09031046
28	0xbd332f71	-0.043746416
29	0x3d20dcdc	0.039273128
30	0xbd58d7be	-0.052940123
31	0xbd19d490	-0.03755623
32	0x3c379264	0.011204336
33	0x3d48d9eb	0.049035948
34	0x3ce039ef	0.027371375
35	0x3d9985ad	0.074962
36	0x3cee9b00	0.029126644
37	0x3cc199cf	0.023632912
38	0x3d4f472c	0.050604984
39	0xbd711722	-0.05885995
40	0xbdae46bc	-0.08509585
41	0xbcaea487	-0.021318687
42	0xbcccdd8d	-0.025007987
43	0x3cc13510	0.023584872
44	0x3cc1d2d7	0.023660107
45	0xbd15117d	-0.03639363
46	0xbe160c0d	-0.14653035
47	0xbd2822a4	-0.04104866
48	0x3d887e29	0.06664688
49	0x3d1f2c24	0.038860455
50	0xbc63addd	-0.013896433
51	0xbdd00bca	-0.101584986
52	0x3da4df15	0.08050362
53	0xbde2cee8	-0.110746205
54	0xbc0230b4	-0.007946182
55	0x3d70dc4f	0.058803853
56	0x3c94cb39	0.01816331
57	0x3d3c7321	0.046008233
58	0x3bfcfd77	0.007720645
59	0x3c9c87e3	0.019107765
60	0x3dc43e7d	0.09582231
61	0xbdea26b4	-0.11433163
62	0xbd6b87c0	-0.05750251
63	0xbe1df4c9	-0.1542541
64	0x3d982242	0.07428409
65	0xbe0fa39e	-0.14027259
66	0x3d7228a0	0.059120774
67	0xbd87b355	-0.06626002
68	0xbd5186cc	-0.051153943
69	0xbd258194	-0.04040678
70	0xbe4addd6	-0.19811186
71	0x3d947e31	0.072506316
72	0xbd68b327	-0.056811478
73	0xbdf013c3	-0.11722519
74	0x3dbe21f8	0.09283823
75	0xbd8c7931	-0.06859053
76	0x3ce1d3a7	0.027566744
77	0x3ddafb35	0.10692445
78	0x3ceb094c	0.028690957
79	0xbd443b81	-0.04790831
80	0x3d9fd825	0.07804898
81	0xbd9e0821	-0.07716394
82	0xbd5f6c45	-0.054546613
83	0x3c20a316	0.009804508
84	0xbd6d0112	-0.05786235
85	0xbcfc7106	-0.030815613
86	0xbe47ebc6	-0.19523534
87	0xbcac3dde	-0.021025594
88	0x3c599156	0.01327928
89	0x3da13615	0.078716435
90	0xbdb2f741	-0.08738566
91	0x3e03a8c9	0.12857355
92	0x3d12b985	0.035821456
93	0xbda48e5b	-0.08034965
94	0xbde8413a	-0.11340566
95	0x3e11a8c5	0.14224537
96	0xbdbb583b	-0.09147688
97	0x3e37beae	0.17943832
98	0x3d98b0bc	0.074555844
99	0xbd4d10e8	-0.05006495
100	0xbcff64d6	-0.031176012
101	0xbdb5dba4	-0.08879784
102	0x3c392c5e	0.011302082
103	0x3cc4c86a	0.024021346
104	0x3d81d361	0.063391455
105	0xbd194316	-0.037417494
106	0xbc768e33	-0.015048551
107	0x3dd3e6ae	0.10346733
108	0xbdfaf767	-0.122542195
109	0xbdd4d554	-0.103922516
110	0x39e35128	0.0004335728
111	0xbc1110f6	-0.008854141
112	0xbdc24be9	-0.09487135
113	0x3d63ebff	0.055644985
114	0x3be5181c	0.0069913995
115	0xbe677189	-0.22601904
116	0xbdc19b86	-0.09453492
117	0x3d308d5f	0.043103572
118	0x3b167f61	0.0022964107
119	0x3e86491c	0.26227653
120	0xbe45d022	-0.19317678
121	0xbdc95d71	-0.09832276
122	0x3e71ef06	0.23626336
123	0xbd8119e0	-0.063037634
124	0xbd870edd	-0.06594632
125	0xbe68fac5	-0.22751911
126	0xbdf2fc23	-0.118644975
127	0x3c955194	0.018227376
128	0x3e9734c6	0.2953245
129	0x3cf614ce	0.030039217
130	0xbcc9a17c	-0.024613135
131	0xbdf6e272	-0.1205491
132	0x3dc17916	0.094469234
133	0xbc8174c5	-0.01580275
134	0x3e8bc007	0.27294943
135	0x3d3d025f	0.04614484
136	0x3c04289a	0.008066321
137	0xbd5a58af	-0.05330723
138	0xbdef6246	-0.11688666
139	0x3c08673c	0.008325394
140	0x3d2e28fa	0.042519547
141	0xbe65b4f1	-0.22432305
142	0x3e7d5cfd	0.24742503
143	0x3d4dab39	0.05021212
144	0x3e38676a	0.180082
145	0xbd97dc67	-0.07415085
146	0x3c772615	0.015084763
147	0xbd97011c	-0.073732585
148	0x3d578c28	0.052623898
149	0xbdf5ed75	-0.12008182
150	0xbdcd2d10	-0.100183606
151	0x3e145df5	0.14488967
152	0x3dde3579	0.10850043
153	0xbe0090a3	-0.12555175
154	0xbd2c7a2e	-0.042108707
155	0x3e1a5cca	0.15074459
156	0xbe08fc25	-0.13377436
157	0xbe02e5b5	-0.12782939
158	0xbd106f9b	-0.035262685
159	0xbc5a6b6e	-0.013331277
160	0x3e81ee7f	0.2537727
161	0xbe6bb441	-0.2301798
162	0x3e2e3dd6	0.17015776
163	0xbe1438bf	-0.14474772
164	0x3d3827bb	0.044959765
165	0xbdc45ba9	-0.09587795
166	0xbe30a59a	-0.17250672
167	0xbe955c3f	-0.2917194
168	0x3e4b7dda	0.19872227
169	0xbeba597b	-0.36396393
170	0x3c95ddae	0.018294182
171	0x3deaece2	0.11470963
172	0xbe18623d	-0.14881225
173	0xbde7159c	-0.112834185
174	0x3d81c2fd	0.06336019
175	0x3ce5b6c7	0.028041257
176	0x3e30029d	0.17188497
177	0xbd9b1d3b	-0.07573935
178	0xbdad0439	-0.08448071
179	0xbd2f7188	-0.04283288
180	0xbdf8752e	-0.12131725
181	0x3e3af5b4	0.18257791
182	0x3df7930c	0.12088594
183	0x3e07f0ee	0.13275501
184	0xbecc4d8e	-0.3990292
185	0xbebd8bcc	-0.3702072
186	0xbe6097bf	-0.21932887
187	0x3dc8c3cb	0.098029695
188	0x3e63a05e	0.22229144
189	0xbd5bebe3	-0.053691756
190	0x3e425911	0.18979289
191	0x3efc857d	0.49320593
192	0xbcea58b8	-0.028606758
193	0x3ee9ee59	0.45689657
194	0x3d8ef18c	0.06979665
195	0xbea24b5b	-0.31698117
196	0xbeb7324f	-0.3578057
197	0x3e6be27e	0.23035619
198	0x3c5ae715	0.013360758
199	0xbe905782	-0.28191763
200	0xbd95a25a	-0.07306357
201	0xbd98a8f5	-0.07454101
202	0xbd084aa7	-0.03327432
203	0xbd0b6c6c	-0.034038946
204	0xbc3e47bc	-0.0116137825
205	0x3e1b9001	0.15191652
206	0x3d694079	0.05694625
207	0x3dca7470	0.0988549
208	0x3d0dc363	0.034610163
209	0x3ce3adfd	0.027792925
210	0x3e3127a4	0.17300278
211	0xbd872026	-0.06597929
212	0x3e2136d9	0.15743579
213	0xbd5b5535	-0.053548057
214	0x3d2cd891	0.04219872
215	0x3e9c50ff	0.30530545
216	0xbe913c49	-0.28366306
217	0xbd226074	-0.039642766
218	0xbcc031e7	-0.023461295
219	0xbe5f192c	-0.21786946
220	0xbdb9e9f7	-0.090778284
221	0xbe31d0b1	-0.17364766
222	0x3e158394	0.14600974
223	0xbce0c2d7	-0.027436657
224	0x3d8ef1de	0.06979726
225	0x3e4dc624	0.20095116
226	0x3dab7e22	0.08373667
227	0x3d5de237	0.054170813
228	0xbdcb1086	-0.09915261
229	0xbe99fd99	-0.30076292
230	0x3db52275	0.08844463
231	0xbd5e0861	-0.05420721
232	0xbe6563c6	-0.22401342
233	0x3cb9f7c6	0.022701155
234	0x3e316db1	0.17327
235	0x3e5c211f	0.2149701
236	0x3d09a6e9	0.033606444
237	0xbd6224f9	-0.05521104
238	0xbdc1b63e	-0.09458588
239	0xbced4d9b	-0.02896767
240	0x3d10ddc2	0.035367735
241	0xbdf078c2	-0.11741783
242	0x3ed92fe4	0.4241935
243	0x3e0cc824	0.13748223
244	0x3df05130	0.11734235
245	0x3dffe0f7	0.124940805
246	0x3df4c582	0.11951734
247	0xbdcfcd77	-0.10146611
248	0x3de651f7	0.11246102
249	0x3ded8854	0.11598268
250	0x3c813b7b	0.015775433
251	0xbe7bff95	-0.24609216
252	0x3d37d511	0.04488093
253	0x3e8eb1ac	0.27869928
254	0xbd4a8c6e	-0.04945033
255	0x3e39703a	0.18109217

fc2.bias f4 [48]
0	0xbd2d1566	-0.042256735
1	0x3db72b45	0.089438
2	0xbd5b53d3	-0.053546738
3	0x3de88893	0.113541745
4	0x3ebcec99	0.3689926
5	0x3e07db46	0.1326724
6	0x3a4e69ad	0.0007874023
7	0xbce1852d	-0.027529323
8	0x3db2b613	0.08726134
9	0x3ccc4a31	0.024937721
10	0x3e874ad1	0.26424268
11	0xbdd47504	-0.103738815
12	0xbe1f3457	-0.1554731
13	0x3dcb0146	0.09912352
14	0xbc936f92	-0.017997537
15	0x3e02b490	0.12764192
16	0xbdae5df2	-0.085140124
17	0x3db1915e	0.08670305
18	0xbe0449a2	-0.12918714
19	0xbc55d8ae	-0.013052149
20	0x3dff4222	0.12463786
21	0x3e5c7662	0.21529534
22	0x3e91d670	0.28483915
23	0x3dc2e7bf	0.09516858
24	0x3cf6ecce	0.030142214
25	0xbe0e0dc9	-0.13872446
26	0x3d15cda0	0.036573052
27	0xbd6241fc	-0.05523871
28	0xbdc071c2	-0.093966976
29	0xbcdd2e68	-0.026999667
30	0x3df8db4c	0.121512026
31	0x3d8f9f31	0.07012785
32	0xbd881f20	-0.066465616
33	0x3e0ea252	0.13929108
34	0xbc6f4b49	-0.014605352
35	0x3d845bb6	0.06462805
36	0xbc970511	-0.018435033
37	0xbe06d616	-0.13167605
38	0x3d7b333a	0.06132815
39	0x3d910187	0.070803694
40	0xbcb4c7a5	-0.022067854
41	0xbd8d8ee6	-0.06912021
42	0x3c5b175f	0.013372271
43	0x3e981905	0.29706588
44	0x3c0dc8bf	0.008653819
45	0xbdd62e46	-0.10458045
46	0x3e1a98bf	0.1509733
47	0xbe03e5d6	-0.12880644

fc3.weight f4 [24, 48]
0	0x3e2bee49	0.16790117
1	0x3d46adc2	0.048505552
2	0xbe56b482	-0.20967296
3	0x3e6993b7	0.22810255
4	0xbe0f3312	-0.13984326
5	0x3ecf6af0	0.40511274
6	0xbe6b2bf9	-0.22965993
7	0xbe84a411	-0.25906423
8	0x3d4d1f46	0.050078653
9	0xbe8a29d7	-0.26985046
10	0x3ebeb14b	0.3724464
11	0x3dffc7c3	0.124892734
12	0xbe276bc8	-0.16349709
13	0xbe29642e	-0.16542122
14	0xbd428833	-0.04749317
15	0xbe0f13e6	-0.13972434
16	0x3ea4a4ed	0.32157078
17	0xbddcb87d	-0.10777376
18	0x3e3d759c	0.18501896
19	0xbe224334	-0.15845948
20	0x3f2e9e2d	0.6821011
21	0x3b15b1a8	0.0022841487
22	0xbd10d342	-0.03535772
23	0x3f0740f2	0.52833474
24	0x3e67582a	0.22592226
25	0xbe546f6b	-0.20745628
26	0xbe288d5a	-0.16460171
27	0x3d8758a3	0.06608703
28	0x3ea5916d	0.32337514
29	0x3dab6a28	0.08369857
30	0xbe8bfd10	-0.2734151
31	0x3cf63d09	0.0300584
32	0xbe9764e4	-0.2956916
33	0x3dd9c470	0.106331706
34	0xbcf445cb	-0.029818436
35	0xbdf93dd7	-0.12169998
36	0x3e5311d2	0.20612267
37	0x3d1550d2	0.03645403
38	0x3eea8bc4	0.45809758
39	0x3dbff9a9	0.09373791
40	0x3dd2843d	0.10279129
41	0x3ec99822	0.3937388
42	0xbe49ebb5	-0.19718821
43	0xbebf6267	-0.37379763
44	0xbe536731	-0.20644833
45	0xbea481f4	-0.32130396
46	0xbe986232	-0.29762417
47	0xbe5c9ffb	-0.21545403
48	0x3d267efb	0.04064844
49	0x3da8cf13	0.08242621
50	0xbe82b0b3	-0.25525436
51	0x3e7fc9c5	0.24979313
52	0x3eac33c9	0.3363326
53	0x3dc15012	0.094391
54	0xbe1ca953	-0.15298967
55	0xbe06d967	-0.1316887
56	0x3bb8c253	0.0056383996
57	0xbe77a39a	-0.24183503
58	0xbe8a6feb	-0.27038512
59	0x3c156205	0.009117608
60	0xbeb888ef	-0.36041972
61	0x3f26910a	0.6506506
62	0x3eb64b5a	0.35604364
63	0xbed0d609	-0.40788296
64	0xbda5f8a9	-0.08104069
65	0xbe530773	-0.2060831
66	0xbdfff732	-0.12498321
67	0xbe84f9a8	-0.25971723
68	0xbe975a21	-0.2956095
69	0x3ef00053	0.46875247
70	0xbb1615d4	-0.0022901194
71	0xbdf39f52	-0.11895622
72	0x3d6182d7	0.05505642
73	0x3c4a42cb	0.012345026
74	0x3e554e7a	0.20830718
75	0x3d104062	0.03521765
76	0x3e87c924	0.26520646
77	0xbe5f1d99	-0.21788634
78	0xbe69ac67	-0.22819673
79	0x3e5152f2	0.20441797
80	0xbe8a1a23	-0.26973066
81	0x3d987673	0.074444674
82	0xbca6671f	-0.020312844
83	0xbe52bfe1	-0.20581008
84	0xbdb8192f	-0.089891784
85	0xbdf17e95	-0.11791722
86	0xbe8400bf	-0.2578182
87	0xbe4b936d	-0.19880457
88	0x3de6a8f7	0.11262696
89	0xbd95e816	-0.073196575
90	0xbdafc210	-0.08581936
91	0x3f1bbffe	0.6083983
92	0x3e513b9b	0.20432894
93	0x3de2ac07	0.11067968
94	0xbe2c44ca	-0.16823116
95	0x3e9060c5	0.2819883
96	0xbdfe4258	-0.12414998
97	0x3d32af38	0.043624133
98	0x3e8f94e7	0.2804329
99	0x3d6a16ac	0.057150528
100	0xbe2aa76a	-0.16665426
101	0xbe07b305	-0.13251884
102	0xbecfea91	-0.40608647
103	0xbf032e69	-0.5124269
104	0xbead6273	-0.33864173
105	0x3eedc55b	0.46439633
106	0x3d6936b2	0.056936927
107	0x3e06431c	0.13111538
108	0xbe2c1582	-0.1680508
109	0xbe306e84	-0.17229658
110	0x3e381b5d	0.17979188
111	0xbe94157e	-0.28922647
112	0xbc82ef04	-0.015983112
113	0xbcbfe7cc	-0.023425959
114	0x3b78983f	0.0037932543
115	0xbc56c70e	-0.013108982
116	0x3dca4ec3	0.09878304
117	0xbeaa74cf	-0.33292243
118	0xbdafd9ea	-0.08586486
119	0x3e63cfb8	0.22247207
120	0x3e158c32	0.14604262
121	0xbc6d6b74	-0.014490951
122	0xbdaa11e0	-0.08304191
123	0xbe07f398	-0.13276517
124	0x3dd13fe9	0.10217268
125	0xbcaf7d69	-0.021422105
126	0xbe29a3dd	-0.16566415
127	0x3db5ab10	0.08870518
128	0x3e9ba4b4	0.30399096
129	0xbe05e4b3	-0.13075523
130	0xbdbe91d8	-0.09305161
131	0xbe1e55eb	-0.15462463
132	0xbdef9b21	-0.1169951
133	0x3ed505da	0.41606027
134	0x3df22d3c	0.11825034
135	0x3e94a0bc	0.2902888
136	0x3f06a26b	0.5259158
137	0xbd9c6009	-0.07635505
138	0xbe56bd1d	-0.20970578
139	0x3d039da6	0.032132767
140	0xbe185dd0	-0.14879537
141	0xbe6e71bb	-0.23285572
142	0x3e8799cb	0.26484522
143	0x3ee1d6a3	0.44109067
144	0xbd8c7857	-0.068588905
145	0x3eb2ac47	0.34897062
146	0xbd46422f	-0.04840296
147	0xbea40848	-0.32037568
148	0xbe9c6ba5	-0.30550876
149	0x3f4e8f8d	0.8068779
150	0x3f0b8403	0.5449831
151	0xbda31be9	-0.07964308
152	0xbf08a066	-0.5336975
153	0xbe2d28c1	-0.16910078
154	0x3ccfb313	0.025353944
155	0x3d67868b	0.056524795
156	0x3e1ccf57	0.15313469
157	0x3e9fc353	0.31203708
158	0xbdadc147	-0.0848413
159	0x3e6a7b71	0.22898652
160	0xbb90ee5d	-0.0044229464
161	0xbe2abf72	-0.16674593
162	0x3c2ef600	0.010678768
163	0xbe53d918	-0.20688283
164	0xbeb05b44	-0.3444463
165	0x3d78bac2	0.06072498
166	0xbebb4289	-0.365742
167	0x3e5d4d32	0.21611479
168	0xbdcc2f86	-0.09970002
169	0x3f10b200	0.56521606
170	0xbc69f3fd	-0.014279363
171	0xbe385bf9	-0.18003835
172	0x3d3aae0f	0.04557615
173	0x3f110d10	0.56660557
174	0x3e6b68d4	0.22989208
175	0x3d379423	0.04481901
176	0x3ea6a7ff	0.32550046
177	0x3a6d7e86	0.0009059686
178	0x3d820e1b	0.06350347
179	0x3e1734b7	0.14766203
180	0x3e9eeee4	0.31041634
181	0x3e8db36d	0.27675954
182	0xbcf20745	-0.029544482
183	0xbdac44f7	-0.084115915
184	0xbe8ae724	-0.2712947
185	0xbe8efd0e	-0.2792744
186	0xbe0249bd	-0.12723441
187	0xbe868a6f	-0.2627749
188	0x3d66ccf6	0.05634781
189	0xbea75c06	-0.32687396
190	0xbf0c29a0	-0.54751015
191	0x3e6ba218	0.23011053
192	0xbde18ab0	-0.11012781
193	0x3e238c8b	0.15971582
194	0x3d9c3093	0.07626452
195	0x3e2dc8fd	0.16971202
196	0xbeb5f191	-0.35535863
197	0x3f28ff4e	0.66014564
198	0xbea727b0	-0.32647467
199	0xbe97b711	-0.29631856
200	0xbe28a520	-0.1646924
201	0xbbc07317	-0.005873095
202	0xbe3662e1	-0.17811157
203	0x3ce93aa6	0.028470349
204	0xbbdba680	-0.006703198
205	0x3ec7dd4d	0.39036027
206	0xbd8e4922	-0.06947543
207	0xbd60d9ac	-0.054895088
208	0xbe1d24d3	-0.15346079
209	0xbe6489e1	-0.22318222
210	0xbd4e5016	-0.050369345
211	0x3d4a8574	0.049443677
212	0x3d2b6d16	0.04185208
213	0x3ee1541a	0.44009477
214	0x3e836711	0.2566457
215	0xbe3ab621	-0.18233539
216	0xbc821d9e	-0.015883263
217	0xbebdf7ac	-0.3710302
218	0xbd8bb65b	-0.06821891
219	0xbddb5eb3	-0.10711422
220	0x3f11d223	0.5696127
221	0xbd290b21	-0.04127038
222	0xbea1b73b	-0.31585106
223	0x3f14421a	0.5791336
224	0xbe13ca2e	-0.14432594
225	0xbe00412a	-0.12524858
226	0x3e031f8b	0.12805001
227	0x3ead80ad	0.33887234
228	0xbdaa9f0d	-0.08331118
229	0x3e1b8fcd	0.15191574
230	0x3dab8df0	0.08376682
231	0x3e3d0155	0.1845754
232	0x3e8d12aa	0.27553302
233	0xbe0336c5	-0.12813862
234	0xbe15610c	-0.14587802
235	0xbdb9467b	-0.09046646
236	0xbca6ed70	-0.02037689
237	0xbe38710d	-0.18011875
238	0xbd5a0d6a	-0.05323545
239	0xbea33f5a	-0.3188427
240	0x3e400ec7	0.18755637
241	0xbec74afd	-0.389244
242	0xbdb7d3f6	-0.08975975
243	0xbdd25acd	-0.10271225
244	0x3ea94bb1	0.3306556
245	0xbed9152d	-0.42398968
246	0x3ef26818	0.47345042
247	0xbeb74fb8	-0.35803008
248	0xbe2d907b	-0.16949646
249	0x3e8701fb	0.26368698
250	0xbd8d172c	-0.06889185
251	0x3db57459	0.08860082
252	0x3d272186	0.040803455
253	0x3dad8c8c	0.08474073
254	0x3cf5d6a0	0.030009568
255	0xbe71bc5d	-0.23607011

fc3.bias f4 [24]
0	0xbe3adef1	-0.18249108
1	0x3d9436eb	0.07237037
2	0xbe36c170	-0.17847228
3	0xbd8646d3	-0.065564774
4	0xbda5a2b8	-0.08087677
5	0x3d958118	0.07300013
6	0x3da14d8d	0.0787612
7	0x3ddd5c00	0.10808563
8	0x3e8c2916	0.27375096
9	0xbe10ba40	-0.14133549
10	0x3d7886d0	0.060675442
11	0x3d58a55b	0.05289207
12	0x3e09de4d	0.13463707
13	0xbeb46db4	-0.35239947
14	0x3e29e8a9	0.16592659
15	0xbe1715f2	-0.14754465
16	0xbd9b4128	-0.07580787
17	0xbc01d102	-0.0079233665
18	0x3dc7487e	0.09730624
19	0x3e5d1aca	0.2159225
20	0xbd7ad1d8	-0.06123528
21	0x3e7534fd	0.23945995
22	0xbdbcce5c	-0.092190474
23	0x3e412e30	0.18865275
